models/model_stgcn.pth (torch, 242532 bytes, 8 tensors)

block.temporal1.weight f4 [16, 1, 1, 3]
0.5652945 0.65778774 0.008799187 0.08539526 -0.4463313 0.22371669 0.22689602 0.4931703
0.38343063 0.23981799 -0.27679485 -0.59076566 -0.64907587 -0.5838566 0.24448423 -0.39985043
-0.36560503 0.47697625 0.5811981 0.43852 0.28243065 -0.4900152 -0.49264696 -0.38855696
0.5318468 0.25240242 -0.039120138 -0.21995287 0.62006223 -0.5600354 0.1518963 -0.07603567
-0.6599223 0.50398105 -0.20710284 0.019464884 -0.67936003 -0.6200889 -0.23696946 0.6142114
0.49145156 -0.23585396 0.45827058 0.06141363 0.5951981 -0.25027716 0.15501295 0.22787285
00000000: 24b7 103f c764 283f 772a 103c b6e3 ae3d
00000010: 8985 e4be fd15 653e 6e57 683e d180 fc3e
00000020: 0551 c43e d992 753e 0eb8 8dbe 6b3c 17bf
00000030: d629 26bf a077 15bf 135a 7a3e 32b9 ccbe
00000040: 9530 bbbe 3b36 f43e 66c9 143f b285 e03e
00000050: c09a 903e 46e3 fabe 393c fcbe f0f0 c6be
00000060: 1d27 083f e43a 813e 703c 20bd 533b 61be
00000070: 66bc 1e3f 7b5e 0fbf b48a 1b3e 97b8 9bbd
00000080: abf0 28bf e704 013f c412 54be d274 9f3c
00000090: 8aea 2dbf 25be 1ebf 1fa8 72be f53c 1d3f
000000a0: 8a9f fb3e b383 71be 71a2 ea3e dc8c 7b3d
000000b0: e75e 183f 5424 80be b7bb 1e3e 8057 693e

block.temporal1.bias f4 [16]
-0.22499368 0.6113129 0.47277427 0.04816237 -0.5453318 -0.17886654 0.17804335 -0.30655774
-0.017749047 0.4360266 -0.3549344 -0.57288903 0.23361571 -0.48936313 0.3878725 -0.5286886
00000000: be64 66be 017f 1c3f 780f f23e e845 453d
00000010: dd9a 0bbf ca28 37be ff50 363e 23f5 9cbe
00000020: 7366 91bc e13e df3e f6b9 b5be dba8 12bf
00000030: f538 6f3e ce8d fabe 3997 c63e 2358 07bf

block.graph_conv.weight f4 [234, 234]
-0.060946282 0.09538652 0.0042607533 0.11965466 0.06764893 -0.033314195 0.103496246 0.07191615
-0.039889786 0.05874926 0.012781155 0.018459732 0.03407563 -0.009494414 0.038479827 0.06690712
0.10994571 0.071193494 0.03180258 -0.08105748 0.10266796 0.12057561 0.057776075 0.05146039
-0.0062611024 0.06264387 0.099823676 -0.033901036 0.021532388 0.08938372 -0.009319513 0.00439888
0.022021797 0.11045446 -0.0039309594 0.021919502 0.035635017 0.028862078 0.07801313 0.0023323933
0.008833815 -0.0037918878 0.02766319 -0.043951202 -0.080380045 -0.004880915 -0.010059829 0.09196097
0.020019947 0.021811012 0.017088976 0.05694043 0.06772506 0.033750065 0.064222954 0.027135868
0.024861887 0.036941513 -0.008033581 9.775062e-05 0.0024333382 -0.012535457 0.05674846 -0.044204265
0.058009095 0.07085986 0.014912854 0.0020080698 0.018964538 0.118514575 -0.016719865 -0.061086874
0.00050314795 0.104831226 0.00781666 0.0758225 0.009486244 0.04128734 -0.039527114 0.040758558
0.05814782 -0.05240316 0.04805649 0.06453049 -0.030758794 0.07133339 -0.055765614 -0.023575237
0.13025595 0.020288672 -0.009941649 0.037384376 0.07402876 -0.047548536 0.060525127 0.045979366
-0.07442845 0.017007248 0.007018423 0.054363266 0.014823516 0.06078652 0.03081897 0.0599188
0.07268353 -0.03656932 0.004011783 0.09096658 0.04134531 0.13702549 0.09548275 0.0628197
0.06386549 0.012321624 -0.04216765 0.030292585 -0.037198327 0.032709178 0.025945041 -0.02023137
0.03721571 0.026613057 -0.054466777 0.0026146956 -0.0809107 0.039104763 0.0009277694 0.08442002
-0.0060138153 0.033327572 0.0043008295 0.068628706 -0.06860128 -0.02801493 0.1440178 0.11343562
0.028691556 0.03221014 -0.016128356 0.013955455 -0.0025755428 -0.050362732 -0.031363007 -0.028321173
-0.05234694 -0.008011939 0.029625896 0.01287689 0.0035927407 0.033807993 0.060101606 0.006965307
0.11380055 0.02853178 0.13165791 -0.024976531 0.0150977615 0.050384976 -0.012489664 0.05760211
0.019450046 0.104979746 -0.08384074 0.10454484 0.003136714 0.08814576 0.059385784 0.0638385
0.10037118 0.06597275 0.07331896 0.042759288 0.0061136424 0.018865857 0.07324502 0.01843184
0.059766695 0.09316583 0.07494309 0.043578506 0.01042408 0.061101906 0.045928113 -0.028794771
0.009225778 0.0012498252 0.0696314 0.077594586 0.000398297 0.061007902 -0.0036184005 0.012230936
-0.0084038945 -0.00073597033 -0.041408215 -0.052813537 0.062454417 0.01964678 0.07754048 -0.045990225
0.0051296107 -0.08713348 -0.05878381 -0.049576312 -0.021375222 -0.034571096 0.025116906 -0.09844167
-0.10169046 0.010552981 0.03245646 0.058094546 0.08511034 -0.03112508 -0.010563385 -0.034474235
0.08604983 0.11413825 0.0032811502 0.0028511751 0.05743953 0.12382265 0.0067464095 0.0060958406
-0.040487163 0.016185114 0.06539435 0.05435729 -0.0017309686 -0.07066591 -0.07023739 0.030140895
0.025378233 0.05862256 0.0547155 0.02144334 -0.079862945 -0.07454219 -0.056277163 -0.013296128
-0.08622686 -0.07553676 -0.1018089 -0.05009173 -0.04565509 0.020461388 -0.006736374 -0.038095403
0.014283553 -0.09353528 -0.038651615 -0.019413006 -0.03222294 -0.026202738 -0.09274506 -0.09270912
00000000: cfa2 79bd 025a c33d ca9d 8b3b 810d f53d
00000010: 868b 8a3d 7774 08bd d7f5 d33d c648 933d
00000020: 7963 23bd 10a3 703d 0d68 513c dd38 973c
00000030: e392 0b3d 758e 1bbc 069d 1d3d 9a06 893d
00000040: 372b e13d e5cd 913d 6c43 023d 7701 a6bd
00000050: 9443 d23d 58f0 f63d 9ba6 6c3d 21c8 523d
00000060: ef29 cdbb 6e4b 803d 5b70 cc3d d0db 0abd
00000070: b164 b03c d00e b73d dfb0 18bc 7b24 903b
00000080: 0e67 b43c f335 e23d 47cf 80bb 8790 b33c
00000090: 06f6 113d 2a70 ec3c 59c5 9f3d 11db 183b
000000a0: b5bb 103c 5281 78bb ea9d e23c 2d06 34bd
000000b0: 4b9e a4bd 15f0 9fbb fbd1 24bc 0856 bc3d
000000c0: df00 a43c 02ad b23c 2efe 8b3c 5e3a 693d
000000d0: 70b3 8a3d 823d 0a3d 5387 833d 0a4c de3c
000000e0: 28ab cb3c fc4f 173d 489f 03bc 77ff cc38
000000f0: a478 1f3b 8461 4dbc 1371 683d 880f 35bd
00000100: f29a 6d3d f91e 913d 0b55 743c d299 033b
00000110: 855b 9b3c c5b7 f23d 19f8 88bc 3b36 7abd
00000120: b0e5 033a c1b1 d63d 7311 003c d448 9b3d
00000130: 316c 1b3c ea1c 293d 2fe7 21bd 72f2 263d
00000140: 692c 6e3d b2a4 56bd e2d6 443d 9028 843d
00000150: def9 fbbc 3e17 923d 7c6a 64bd db20 c1bc
00000160: d161 053e 6e34 a63c 4ce2 22bc 5c20 193d
00000170: 649c 973d 41c2 42bd 32e9 773d dc54 3c3d
00000180: f16d 98bd c952 8b3c cdfa e53b 04ac 5e3d
00000190: 55de 723c 49fb 783d 1178 fc3c 6a6d 753d
000001a0: 1adb 943d b6c9 15bd 4675 833b b04c ba3d
000001b0: b359 293d 6950 0c3e 768c c33d 9da7 803d
000001c0: e9cb 823d a3e0 493c fcb7 2cbd 2828 f83c
000001d0: 465d 18bd 0ffa 053d b28a d43c 42bc a5bc
000001e0: 806f 183d a003 da3c 8e18 5fbd 505b 2b3b
000001f0: 82b4 a5bd 512c 203d 8d35 733a 67e4 ac3d
00000200: 8a0f c5bb 7e82 083d f9ed 8c3b 358d 8c3d
00000210: d47e 8cbd 917f e5bc 6779 133e ef50 e83d
00000220: 8e0a eb3c c8ee 033d 9d1f 84bc 6ca5 643c
00000230: 70ca 28bb 2749 4ebd 7f76 00bd ce01 e8bc
00000240: bf69 56bd 8244 03bc 02b2 f23c 97f9 523c
00000250: 3074 6b3b 407a 0a3d 1a2d 763d 3b3d e43b
00000260: 4310 e93d 7bbb e93c 55d1 063e 959b ccbc
00000270: 9a5c 773c 7a60 4e3d 73a1 4cbc 31f0 6b3d
00000280: b455 9f3c 9fff d63d b2b4 abbd 9b1b d63d
00000290: 5491 4d3b c485 b43d 823e 733d c2bd 823d
000002a0: 688f cd3d b91c 873d 4028 963d 5d24 2f3d
000002b0: f354 c83b 928c 9a3c 7c01 963d 5ffe 963c
000002c0: eccd 743d bacd be3d c37b 993d 607f 323d
000002d0: c3c9 2a3c fe45 7a3d 1e1f 3c3d 03e3 ebbc
000002e0: b827 173c 2dd1 a33a e89a 8e3d e9e9 9e3d
000002f0: 85d2 d039 6ce3 793d b022 6dbb 4464 483c
00000300: 7db0 09bc 22ee 40ba a99b 29bd 0253 58bd
00000310: 34d0 7f3d 49f2 a03c 8bcd 9e3d 3f60 3cbd
00000320: 4b16 a83b 0a73 b2bd 4bc7 70bd 8810 4bbd
00000330: 171b afbc 6c9a 0dbd f8c1 cd3c c99b c9bd
00000340: 1743 d0bd 69e6 2c3c 11f1 043d 8cf4 6d3d
00000350: 544e ae3d 06fa febc 0c12 2dbc db34 0dbd
00000360: e53a b03d 51c1 e93d 9108 573b c8da 3a3b
00000370: b645 6b3d bb96 fd3d fc10 dd3b 9ebf c73b
00000380: ded5 25bd a596 843c 79ed 853d c0a5 5e3d
00000390: abe1 e2ba 4ab9 90bd 9fd8 8fbd 0aea f63c
000003a0: 03e6 cf3c 361e 703d 5c1d 603d f2a9 af3c
000003b0: 2f8f a3bd 93a9 98bd e282 66bd 01d8 59bc
000003c0: b597 b0bd 04b3 9abd 2f81 d0bd fc2c 4dbd
000003d0: d500 3bbd a49e a73c cdbc dcbb ed09 1cbd
000003e0: 9005 6a3c 6d8f bfbd 2851 1ebd 0608 9fbc
000003f0: 34fc 03bd 20a7 d6bc 1ff1 bdbd 47de bdbd

block.graph_conv.bias f4 [234]
0.057997793 -0.034338396 -0.109765984 0.022967542 0.10836623 0.028344104 -0.09002929 -0.11898971
-0.08438967 0.064095005 0.03296876 -0.05495277 -0.123590805 0.14841059 -0.06184991 0.06057345
0.10116394 0.08935487 0.09494196 -0.086665265 -0.12997125 0.013294724 -0.07911984 0.07295319
0.09334463 -0.15800326 0.077543184 0.056275103 0.1420068 0.032771986 -0.09755666 -0.11612846
0.1368409 -0.07065618 0.11359345 -0.08235975 -0.010539213 0.14022988 -0.006561543 -0.09507186
-0.10694922 0.0024678637 0.035437852 -0.002317395 -0.022395933 -0.1327572 -0.1208298 0.044849824
0.062442057 0.10017665 0.18076706 -0.08220058 -0.13334131 -0.060840152 0.11206671 -0.010874512
0.0736614 0.033027526 0.052711062 -0.09658738 0.022801748 0.09350132 -0.017214991 -0.09665225
0.024285857 -0.078127116 0.0057051834 -0.06688781 -0.012946783 0.0042473217 0.10168898 0.04172139
-0.036116943 -0.0021614153 0.0082571795 0.02690351 -0.10815638 -0.10961696 0.013658386 -0.04934852
-0.024287395 0.023637135 -0.07939778 -0.0885387 0.08433015 -0.07991803 0.14329928 -0.078743294
0.16367622 0.07851321 0.0814733 -0.07181975 -0.017448667 0.044698644 0.07434809 -0.018442998
-0.07226193 0.07798845 0.003667631 0.035206378 0.096310444 0.08222224 0.14236097 0.017195009
0.045197356 0.09097916 0.11884703 -0.014538528 0.018165007 -0.098059215 -0.051629774 -0.049703695
0.056192107 -0.0065196585 -0.11621197 -0.040040135 0.025519082 0.006474678 -0.10881829 -0.07591871
0.105063066 0.0097921835 0.016263384 0.043284066 0.041658517 -0.052121527 0.058851097 0.049904022
0.022436932 0.079231046 0.07545709 -0.029656924 -0.10458753 -0.039883085 0.02234113 0.16962364
-0.02935989 0.033253185 -0.100820825 0.041186515 -0.035062283 0.05825297 0.048107874 -0.015681118
-0.049759634 -0.107051566 -0.01341506 0.14338703 0.00882026 0.039298758 -0.15867558 0.062948994
0.10376036 0.04347865 0.06975144 0.11592684 -0.12276538 -0.053479128 -0.122217365 0.044910632
-0.124625124 0.09128908 0.034637824 0.06723891 -0.14722535 0.15365197 -0.050075985 -0.04352083
-0.05238681 -0.04234207 0.009385522 -0.058949757 -0.035522632 -0.0076135653 -0.05185535 -0.14447163
-0.10703891 0.09349293 0.07203531 -0.10177158 -0.060924042 0.08940121 -0.016633086 0.019806208
-0.12473911 0.06022325 -0.004444526 -0.10689432 -0.029806092 0.11928958 -0.15671544 0.019531317
-0.114572234 -0.05331139 -0.09344337 -0.010661006 0.053619698 -0.120419405 -0.12917413 -0.06088441
-0.03366108 0.08380844 -0.03708061 -0.022530887 0.09745173 -0.013487247 -0.041687943 -0.09804573
0.08939568 -0.04526039 -0.046114575 -0.006762451 -0.03825905 -0.028167127 -0.06448617 -0.02000212
-0.12663108 -0.03181168 0.07225236 0.09923627 0.023348931 0.16146645 0.06285747 -0.108346745
0.055936746 0.076509945 -0.095785275 -0.007043658 0.14859734 0.0815512 -0.045128126 0.026615871
-0.12778468 0.06769554
00000000: 188f 6d3d 6ba6 0cbd fdcc e0bd 6d26 bc3c
00000010: 1def dd3d e531 e83c 4761 b8bd e1b0 f3bd
00000020: 7ed4 acbd 3e44 833d 400a 073d 2816 61bd
00000030: 2d1d fdbd f2f8 173e 5556 7dbd de1b 783d
00000040: 0a2f cf3d b0ff b63d ee70 c23d 8f7d b1bd
00000050: 2f17 05be 1dd2 593c 9509 a2bd 7b68 953d
00000060: 782b bf3d 9bcb 21be f6ce 9e3d b980 663d
00000070: 3b6a 113e eb3b 063d c9cb c7bd c2d4 edbd
00000080: 0520 0c3e 30b4 90bd afa3 e83d 3bac a8bd
00000090: aaac 2cbc 6c98 0f3e 3602 d7bb 09b5 c2bd
000000a0: 3108 dbbd e2bb 213b 4827 113d 70df 17bb
000000b0: ad77 b7bc 81f1 07be 9d75 f7bd 73b4 373d
000000c0: 3ec3 7f3d 6a29 cd3d 001b 393e c758 a8bd
000000d0: a08a 08be 8633 79bd 3b83 e53d 022b 32bc
000000e0: cadb 963d df47 073d 8ee7 573d 9bcf c5bd
000000f0: bbca ba3c 9f7d bf3d 7406 8dbc 9df1 c5bd
00000100: 22f3 c63c 1c01 a0bd 8cf2 ba3b 7afc 88bd
00000110: be1e 54bc 1e2d 8b3b 5042 d03d 0ce4 2a3d
00000120: 5cef 13bd 88a6 0dbb 1f49 073c c064 dc3c
00000130: 1881 ddbd db7e e0bd 6cc7 5f3c ac21 4abd
00000140: 5cf6 c6bc aaa2 c13c 4e9b a2bd c753 b5bd
00000150: 49b5 ac3d 10ac a3bd 0cbd 123e 2a44 a1bd
00000160: bd9a 273e 89cb a03d 79db a63d 3c16 93bd
00000170: 82f0 8ebc ed15 373d d043 983d c515 97bc
00000180: 10fe 93bd 69b8 9f3d a35c 703b 9034 103d
00000190: 693e c53d 2264 a83d 13c7 113e 8cdc 8c3c
000001a0: dd20 393d 4853 ba3d 1266 f33d 0233 6ebc
000001b0: c8ce 943c 45d3 c8bd be79 53bd 1a96 4bbd
000001c0: b229 663d dca2 d5bb 8b00 eebd 2001 24bd
000001d0: 650d d13c 8929 d43b 20dc debd 457b 9bbd
000001e0: 4e2b d73d 656f 203c ca3a 853c a24a 313d
000001f0: 1fa2 2a3d 627d 55bd d90d 713d 2968 4c3d
00000200: a8cd b73c e343 a23d 3f89 9a3d 14f3 f2bc
00000210: fd31 d6bd 725c 23bd bf04 b73c d2b1 2d3e
00000220: 2784 f0bc 7e34 083d 267b cebd 31b3 283d
00000230: 789d 0fbd ab9a 6e3d c30c 453d b075 80bc
00000240: c2d0 4bbd da3d dbbd d7ca 5bbc 0dd4 123e
00000250: da82 103c bcf7 203d da7b 22be 67eb 803d
00000260: 5080 d43d ab16 323d d8d9 8e3d 0d6b ed3d
00000270: 6a6c fbbd ee0c 5bbd 194d fabd 36f4 373d
00000280: 753b ffbd c5f5 ba3d 64e0 0d3d 8eb4 893d
00000290: 3ec2 16be f156 1d3e 7a1c 4dbd e642 32bd
000002a0: 8d93 56bd e16e 2dbd bcc5 193c 4d75 71bd
000002b0: 2e80 11bd 377b f9bb 4766 54bd 5ff0 13be
000002c0: 3737 dbbd 3979 bf3d 4087 933d 9e6d d0bd
000002d0: 7d8b 79bd fb17 b73d 1c42 88bc a140 a23c
000002e0: 3877 ffbd a8ac 763d 63a3 91bb 69eb dabd
000002f0: e82b f4bc 184e f43d 037a 20be 2400 a03c
00000300: d9a4 eabd 0b5d 5abd 3d5f bfbd 80ab 2ebc
00000310: 54a0 5b3d 739e f6bd 3946 04be ee61 79bd
00000320: 33e0 09bd c2a3 ab3d d6e1 17bd b292 b8bc
00000330: c694 c73d 9df9 5cbc fac0 2abd 33cc c8bd
00000340: 1515 b73d f562 39bd a3e2 3cbd 8d97 ddbb
00000350: 86b5 1cbd bfbe e6bc 5311 84bd 7cdb a3bc
00000360: 94ab 01be f74c 02bd 0cf9 933d 633c cb3d
00000370: 4246 bf3c 7657 253e 6bbb 803d e6e4 ddbd
00000380: ee1d 653d 3fb1 9c3d 122b c4bd 7cce e6bb
00000390: e729 183e 5104 a73d 45d8 38bd 8709 da3c
000003a0: fdd9 02be f6a3 8a3d

block.temporal2.weight f4 [16, 16, 1, 3]
-0.09909724 -0.18208669 0.102295026 -0.15820444 0.10109514 0.016439278 0.024697091 -0.018537391
0.20012052 0.0886217 0.15478714 -0.15535367 0.071458235 0.15633392 -0.19686314 0.09077079
0.115587525 -0.25368512 -0.21055679 -0.07888329 0.18097456 -0.04671426 0.13192229 -0.117988676
-0.14635588 0.046789125 0.0490499 -0.05922339 -0.03429527 0.18736339 -0.016389497 -0.10956386
-0.041962948 0.039587207 -0.04501961 -0.14453053 -0.0398587 0.09466561 -0.026643835 0.04663794
0.039526235 0.16526869 -0.16163203 -0.11696696 0.09131669 -4.3888343e-05 0.033919517 -0.22069341
0.09607397 -0.041095477 -0.13318247 0.13264467 -0.052513495 -0.015927106 0.07329165 0.08766771
0.12706763 -0.18320219 -0.05901478 -0.11418201 0.020879861 0.08641349 0.070964806 0.1125327
0.07516702 -0.14887488 0.034336794 -0.14707196 -0.054207742 -0.08626257 0.1416584 -0.08273448
-0.020782504 0.030123994 0.12260538 0.084555484 0.1569468 0.12740438 -0.21534958 0.0681185
-0.15099357 -0.22042382 -0.09519456 -0.13618277 -0.05647575 0.02897475 -0.07747157 -0.04739193
0.047719628 -0.18712802 0.13491154 -0.04184216 -0.082123585 0.05382572 -0.050988674 -0.21377838
-0.10535488 -0.08339773 0.06171941 0.20019762 0.11253044 0.18233071 0.05982263 -0.15444456
-0.09950324 0.020745438 0.23130055 0.04645842 0.11295369 0.16703208 0.00035746943 0.03983007
-0.0070214206 0.06248716 0.085184306 -0.17006052 -0.107257634 0.14192618 0.16413127 0.0662515
-0.08001816 -0.012221236 0.11001339 0.18827255 0.105055325 0.1045609 0.08575144 0.004996256
-0.17281128 -0.17867167 -0.10505794 -0.15537827 0.20105384 0.214889 0.09999929 -0.1582445
-0.0004518812 -0.07465279 0.027182149 -0.08150995 -0.033527426 0.0032231165 -0.04035195 -0.07174582
-0.14591059 0.047122777 0.02915734 -0.09243651 0.019964201 -0.23762915 -0.14037718 0.11708126
0.034480657 0.1475264 0.19974379 0.12556018 0.18008876 0.07151607 0.010203875 0.031571783
-0.11911024 -0.067098044 -0.17199689 -0.0734314 -0.08166468 0.18966594 0.0022500805 0.0077828905
-0.14283377 0.06327518 0.10555595 -0.15922213 0.05760566 -0.12428714 0.13989316 0.12950522
0.07639871 0.13805357 -0.162732 0.13301305 -0.029763764 -0.018981263 -0.17338786 0.086885236
0.051059466 0.18180113 0.08611778 0.13793643 -0.008201258 0.13995412 -0.1780675 0.03724293
-0.10351087 0.11058114 0.019374903 -0.06292593 -0.08357574 0.056993555 0.05118372 -0.01824584
-0.083982795 -0.10088819 0.018893069 -0.086885914 0.17093125 -0.15147798 -0.0324592 0.146984
0.02994518 -0.037401166 -0.09884932 0.19857936 -0.00889012 -0.008209209 -0.14485157 -0.08174132
-0.0836959 -4.6515488e-05 0.004015665 -0.1626259 0.11228282 -0.03646511 0.066911414 -0.022304965
-0.018676516 -0.04589316 -0.17244771 -0.18951301 0.15598649 -0.11473813 0.090799674 0.06126023
0.052114684 -0.04964392 -0.08865189 0.018015245 -0.0344345 0.07061416 0.04815175 -0.09477574
-0.02999516 0.00759983 -0.0604153 0.21627884 -0.05889137 -0.007189994 0.03881657 -0.123203196
0.08538704 0.04866809 0.11445893 -0.03747618 -0.0033014887 -0.062057946 0.07653397 0.093386516
00000000: 7ef3 cabd ef74 3abe 0e80 d13d 5800 22be
00000010: f80a cf3d aaab 863c 8e51 ca3c badb 97bc
00000020: 65ec 4c3e 4b7f b53d 8580 1e3e 0815 1fbe
00000030: b258 923d 0016 203e 7e96 49be 09e6 b93d
00000040: 27b9 ec3d 04e3 81be 339c 57be 908d a1bd
00000050: 6551 393e 7457 3fbd a316 073e 0ca4 f1bd
00000060: 51de 15be f4a5 3f3d 8ce8 483d 3a94 72bd
00000070: 3279 0cbd 30dc 3f3e 4443 86bc 0463 e0bd
00000080: 57e1 2bbd 3226 223d 7c66 38bd d0ff 13be
00000090: e042 23bd 0be0 c13d 2c44 dabc 6d07 3f3d
000000a0: 43e6 213d 323c 293e de82 25be 608c efbd
000000b0: 3f04 bb3d c014 38b8 31ef 0a3d 74fd 61be
000000c0: 6ec2 c43d bb53 28bd fc60 08be 01d4 073e
000000d0: 6418 57bd 9079 82bc ef19 963d 218b b33d
000000e0: 041e 023e 5b99 3bbe 7bb9 71bd 42d8 e9bd
000000f0: 3e0c ab3c 8ef9 b03d ff55 913d 8b77 e63d
00000100: 2bf1 993d a872 18be bda4 0c3d 089a 16be
00000110: f008 5ebd 6eaa b0bd e60e 113e b270 a9bd
00000120: 1240 aabc 98c6 f63c 8818 fb3d 6d2b ad3d
00000130: a9b6 203e 4b76 023e 9a84 5cbe b681 8b3d
00000140: 0f9e 1abe c8b6 61be 5ef5 c2bd 7f73 0bbe
00000150: 1e53 67bd 745c ed3c 6aa9 9ebd 0a1e 42bd
00000160: a875 433d 7d9e 3fbe 4026 0a3e af62 2bbd
00000170: 6930 a8bd 5c78 5c3d 80d9 50bd b8e8 5abe
00000180: 4dc4 d7bd 6ecc aabd 7ecd 7c3d 9b00 4d3e
00000190: 5c76 e63d e7b4 3a3e 9308 753d b726 1ebe
000001a0: 5bc8 cbbd 56f2 a93c 0dda 6c3e 2f4b 3e3d
000001b0: 4454 e73d 750a 2b3e bc6a bb39 db24 233d
000001c0: f213 e6bb 89f2 7f3d 1c75 ae3d 5824 2ebe
000001d0: e4a9 dbbd 1955 113e 0712 283e deae 873d
000001e0: 90e0 a3bd 943b 48bc b34e e13d 85ca 403e
000001f0: 3f27 d73d 0624 d63d 739e af3d a2b7 a33b
00000200: 71f5 30be b5f5 36be 9e28 d7bd 7b1b 1fbe
00000210: 0fe1 4d3e dd0b 5c3e 6ecc cc3d d90a 22be
00000220: 78ea ecb9 90e3 98bd 19ad de3c b0ee a6bd
00000230: 0e54 09bd ec3a 533b 1648 25bd 79ef 92bd
00000240: 9669 15be d003 413d 60db ee3c 5a4f bdbd
00000250: f78b a33c 0e55 73be 09bf 0fbe 4dc8 ef3d
00000260: 973b 0d3d 2911 173e a389 4c3e d992 003e
00000270: 3069 383e 0477 923d 272e 273c 6a51 013d
00000280: 12f0 f3bd b36a 89bd f41f 30be 3463 96bd
00000290: d03f a7bd ca37 423e 1676 133b 9e07 ff3b
000002a0: 0443 12be 6b96 813d b82d d83d 200b 23be
000002b0: eaf3 6b3d 428a febd 2740 0f3e 049d 043e
000002c0: ed76 9c3d ea5d 0d3e 38a3 26be 9334 083e
000002d0: 23d3 f3bc 987e 9bbc 968c 31be e3f0 b13d
000002e0: bb23 513d 132a 3a3e 855e b03d 353f 0d3e
000002f0: 925e 06bc 2250 0f3e 5457 36be 0b8c 183d
00000300: 82fd d3bd 5d78 e23d 1eb8 9e3c 4fdf 80bd
00000310: c229 abbd 1372 693d 05a6 513d 4d78 95bc
00000320: 2cff abbd 789e cebd a3c5 9a3c 3ef1 b1bd
00000330: 9a08 2f3e 0b1d 1bbe f0f3 04bd f982 163e
00000340: 984f f53c f731 19bd 8371 cabd 6358 4b3e
00000350: dea7 11bc eb7f 06bc f853 14be fe67 a7bd
00000360: c268 abbd a019 43b8 d795 833b 6787 26be
00000370: 89f4 e53d 705c 15bd da08 893d e7b8 b6bc
00000380: 7eff 98bc 77fa 3bbd 2296 30be b30f 42be
00000390: ecba 1f3e d3fb eabd 2ef5 b93d 02ec 7a3d
000003a0: 3576 553d 6c57 4bbd 1f8f b5bd b594 933c
000003b0: 310b 0dbd 289e 903d c53a 453d c819 c2bd
000003c0: 69b8 f5bc ff07 f93b 0976 77bd 3378 5d3e
000003d0: 1438 71bd 0b9a ebbb 20fe 1e3d f551 fcbd
000003e0: 67df ae3d 3158 473d 7269 ea3d 9f80 19bd
000003f0: ca5d 58bb 7930 7ebd d8bd 9c3d 6e41 bf3d

block.temporal2.bias f4 [16]
0.16083597 0.10395866 -0.10818447 0.13472904 0.066941366 -0.0711596 0.05533148 0.20061944
0.09116806 0.06615027 -0.025669139 0.13884637 0.016104281 -0.14056547 0.13229267 -0.12401009
00000000: 2fb2 243e 47e8 d43d d28f ddbd 69f6 093e
00000010: 8e18 893d 20bc 91bd 43a3 623d 2f6f 4d3e
00000020: 52b6 ba3d cb79 873d 1648 d2bc be2d 0e3e
00000030: 20ed 833c 65f0 0fbe bb77 073e 01f9 fdbd

decoder.weight f4 [234, 16]
0.13327368 0.08264595 0.11004485 0.06943863 -0.25919372 0.2795694 0.1362847 -0.077754684
-0.092559844 -0.24767889 -0.14895253 -0.026617631 -0.20887499 -0.23916386 0.25500003 -0.25945243
-0.059420105 -0.22993012 0.1738228 -0.0003855636 -0.2374693 0.045007534 -0.12251092 0.10526166
0.1935624 -0.12366249 0.13926956 -0.22377896 -0.15708014 -0.045743424 -0.23741181 0.116208285
-0.16428386 -0.26453683 0.15707599 -0.19932532 -0.143158 -0.16037345 0.016442673 -0.1587759
0.14847215 -0.22693533 0.0056193676 -0.05719239 -0.032311462 -0.1720775 0.07678539 -0.16218263
-0.30892497 -0.2008503 -0.20925097 0.20984519 0.21254694 -0.13528082 0.05732933 -0.17658475
-0.21234989 -0.13056412 -0.30885157 0.21738195 -0.036540773 -0.12849815 0.1277495 0.13513507
-0.16007702 0.046507474 -0.048607055 -0.043323033 -0.2901761 0.048922345 -0.10290654 -0.18831505
0.21127486 -0.13594672 0.29585204 0.069442846 0.10493144 0.10205 0.1099997 -0.33679205
-0.13418196 -0.07271173 0.035414558 0.01977213 0.098565124 -0.1700834 -0.05744949 0.19599356
-0.08842929 -0.008257051 0.026812635 0.07818593 0.07787012 0.224046 0.045438513 -0.06641135
-0.0016626348 -0.10118597 -0.030736582 0.14892676 -0.22889905 0.09798931 0.10974885 0.0038497802
-0.15581092 -0.13544452 -0.20265575 -0.25005287 0.10542625 -0.15662512 -0.054541055 -0.19421524
-0.19564743 -0.1561908 -0.059210453 -0.03562357 -0.1116046 -0.16460082 -0.09677921 -0.21885477
0.14443122 -0.20272695 -0.04638172 0.022158857 0.07866135 0.07649079 0.1610786 -0.14451109
-0.07593723 0.008032655 9.781087e-05 0.15157889 -0.023381839 -0.21858948 -0.22530343 0.040898655
0.2621769 0.08751328 0.090718344 -0.17132816 0.10119783 -0.1360827 -0.13394108 0.06580361
0.071911395 -0.0952577 -0.20529363 -0.059519157 -0.085601665 0.061784085 -0.0030242556 -0.060203403
0.037793875 -0.2519978 0.09509006 -0.22529718 -0.23770463 0.08269139 0.16894698 0.032357734
-0.27849233 -0.16593136 -0.010685471 -0.09564909 -0.002257249 0.099114895 -0.29102775 0.077317685
-0.058711514 -0.028939372 0.04097197 -0.11055299 -0.090381965 0.16501944 -0.16238597 0.09814349
0.08711718 -0.11163918 -0.109936744 0.09785828 0.2781341 -0.14113182 -0.0393395 0.15533793
-0.0018305823 -0.14624442 0.3138954 0.08898999 -0.18640481 0.2568476 -0.17718376 -0.27103788
0.17421624 -0.15591146 -0.151534 0.026199643 0.11263204 0.24503715 0.08682981 0.1327157
-0.008925086 0.09323423 0.1352407 -0.21082331 0.057490453 -0.03259061 -0.10848213 -0.13944645
0.2735348 0.014889112 0.24832308 0.25273025 -0.32906067 0.21460295 -0.15398687 0.27104956
-0.14517342 0.0585516 0.02329263 0.06873419 0.042223256 -0.08594374 -0.2612005 0.2429921
0.025594478 -0.1600006 -0.28549895 -0.16363704 0.25493792 0.09426113 -0.08865111 0.1045963
-0.12734602 0.024089957 0.2786414 0.044485666 0.27329144 0.16563906 -0.18892288 -0.20354517
-0.076430626 -0.12285589 0.115451045 -0.024242504 -0.11695866 0.057066306 -0.17268398 0.063249126
-0.1520764 -0.040242627 0.026481217 0.08745986 0.12849243 -0.11833469 -0.24286175 0.10795487
00000000: e578 083e 4842 a93d 325f e13d d735 8e3d
00000010: 0ab5 84be b823 8f3e 378e 0b3e d93d 9fbd
00000020: 0490 bdbd 899f 7dbe 0387 18be 380d dabc
00000030: 53e3 55be 5fe7 74be 5d8f 823e f3d6 84be
00000040: 7f62 73bd cd72 6bbe 9bfe 313e 7825 cab9
00000050: 272b 73be d259 383d 01e7 fabd 6d93 d73d
00000060: 3935 463e c242 fdbd ae9c 0e3e 5026 65be
00000070: 9ed9 20be 755d 3bbd 151c 73be 9cfe ed3d
00000080: 073a 28be 5f71 87be 87d8 203e f01b 4cbe
00000090: 0398 12be f038 24be c9b2 863c 2696 22be
000000a0: 1509 183e bc61 68be ac22 b83b 9142 6abd
000000b0: 0659 04bd 1635 30be a941 9d3d 3413 26be
000000c0: 6a2b 9ebe b3ab 4dbe e345 56be a8e1 563e
000000d0: e8a5 593e 0e87 0abe 29d2 6a3d a2d2 34be
000000e0: 4072 59be 9ab2 05be cb21 9ebe 6099 5e3e
000000f0: c7ab 15bd 0595 03be c4d0 023e d960 0a3e
00000100: 3beb 23be 9f7e 3e3d 3118 47bd 7e73 31bd
00000110: f691 94be cc62 483d aac0 d2bd a9d5 40be
00000120: 7058 583e 9e35 0bbe eb79 973e 0d38 8e3d
00000130: 4be6 d63d 97ff d03d 8647 e13d 0270 acbe
00000140: ff66 09be e3e9 94bd db0e 113d 29f9 a13c
00000150: 83dc c93d 582a 2ebe 2850 6bbd 89b2 483e
00000160: 6a1a b5bd 9548 07bc 2ca6 db3c f21f a03d
00000170: 5f7a 9f3d 516c 653e bc1d 3a3d ad02 88bd
00000180: c4ec d9ba 973a cfbd 49cb fbbc 4280 183e
00000190: 8364 6abe 9fae c83d 01c4 e03d 984c 7c3b
000001a0: e68c 1fbe f8b1 0abe fd84 4fbe ee06 80be
000001b0: b8e9 d73d 5662 20be 7166 5fbd 5ce0 46be
000001c0: cd57 48be 7bf0 1fbe a986 72bd 05ea 11bd
000001d0: f490 e4bd 1e8d 28be 2e34 c6bd 771b 60be
000001e0: c7e5 133e a797 4fbe c2fa 3dbd 7e86 b53c
000001f0: 3419 a13d 34a7 9c3d caf1 243e b7fa 13be
00000200: fa84 9bbd 669b 033c d01f cd38 7f37 1b3e
00000210: 458b bfbc ecd5 5fbe f1b5 66be 5985 273d
00000220: 0d3c 863e 2a3a b33d 8aca b93d a670 2fbe
00000230: cf40 cf3d 4359 0bbe da27 09be 0bc4 863d
00000240: 4846 933d 7816 c3bd 7e38 52be 5cca 73bd
00000250: ed4f afbd 4f11 7d3d 9732 46bb d897 76bd
00000260: c0cd 1a3d db05 81be 94be c23d 4eb4 66be
00000270: d868 73be 1a5a a93d 7000 2d3e 8b89 043d
00000280: 8c96 8ebe e9e9 29be 1d12 2fbc ace3 c3bd
00000290: 5bee 13bb c0fc ca3d 9701 95be bc58 9e3d
000002a0: 7c7b 70bd 4312 edbc 39d2 273d 9b69 e2bd
000002b0: 2e1a b9bd dbfa 283e 8248 26be 74ff c83d
000002c0: 7e6a b23d 15a3 e4bd 8426 e1bd ec69 c83d
000002d0: 9867 8e3e dc84 10be 7522 21bd e810 1f3e
000002e0: 26f0 efba 19c1 15be e6b6 a03e 6240 b63d
000002f0: e7e0 3ebe 8781 833e a96f 35be 7ac5 8abe
00000300: be65 323e 41a7 1fbe bb2b 1bbe a2a0 d63c
00000310: a1ab e63d 05eb 7a3e d4d3 b13d a0e6 073e
00000320: 863a 12bc 97f1 be3d 8a7c 0a3e 11e2 57be
00000330: 1c7b 6b3d bb7d 05bd e12b debd 0dcb 0ebe
00000340: c10c 8c3e 76f1 733c 6848 7e3e dc65 813e
00000350: a47a a8be e0c0 5b3e bcae 1dbe 02c7 8a3e
00000360: 57a8 14be cdd3 6f3d 30d0 be3c 83c4 8c3d
00000370: 4bf2 2c3d 4603 b0bd 12bc 85be ecd2 783e
00000380: 83ab d13c 33d7 23be eb2c 92be 7890 27be
00000390: 3987 823e fb0b c13d b78e b5bd 9636 d63d
000003a0: ff66 02be 4d58 c53c 16aa 8e3e 9a36 363d
000003b0: dbec 8b3e 499d 293e 0075 41be 256e 50be
000003c0: a987 9cbd de9b fbbd 9971 ec3d 3798 c6bc
000003d0: 0688 efbd 5cbe 693d 12d4 30be c288 813d
000003e0: eab9 1bbe 74d5 24bd 23ef d83c 281e b33d
000003f0: 8593 033e 7559 f2bd c0b0 78be 7117 dd3d

decoder.bias f4 [234]
0.14788118 -0.23946327 0.15925048 0.21478304 0.19272715 -0.053391974 0.03952814 -0.13227409
-0.18051647 0.14782892 0.092837304 0.1505432 0.056176074 -0.10998207 0.02453462 -0.08955492
0.0491316 -0.043936014 -0.072924875 0.1901104 0.1716089 0.20768778 -0.08043873 0.20400135
-0.15712897 -0.22672403 -0.22292742 -0.16893928 -0.23083389 0.20430817 0.12787545 -0.17690505
-0.15530846 0.0022396343 -0.17252602 -0.094316356 -0.14605524 -0.12748285 0.047919404 -0.15467317
0.06841687 -0.055996075 0.0151532665 -0.14364316 0.0803439 -0.23508903 -0.1285645 -0.06876084
0.14084028 0.23671336 0.029086234 -0.28840342 -0.05132107 0.11581174 -0.06433801 -0.041607846
0.114696205 -0.22582571 0.12114099 -0.22355507 -0.3043323 0.08345656 -0.075085364 -0.19774042
-0.047207333 -0.1791525 0.2022176 0.0037029854 0.3262279 0.046545852 0.1689633 -0.22104573
0.1402092 0.090585664 0.29200104 0.026942354 0.051090024 -0.24535297 0.31311846 -0.2639519
0.10905904 -0.005587445 -0.22202918 0.08490098 -0.29002792 0.047148686 0.07500706 0.09641342
-0.1970364 -0.022107612 -0.0682072 -0.16691163 -0.16771919 -0.09368816 0.014021111 -0.11230343
-0.18254593 0.09587539 0.29083553 -0.089644045 0.1818717 0.100754306 -0.03781063 -0.16402721
-0.23167276 0.09893345 0.135322 0.15818308 -0.1630891 -0.05908923 0.07994804 -0.2032363
0.041740157 -0.012182185 -0.11427345 -0.17300409 -0.07965426 -0.08781002 0.22766031 -0.062156275
-0.17597412 0.0583142 -0.08785225 0.121915594 0.25518826 0.11871774 0.0450334 0.17664944
-0.00326367 -0.084390156 0.17175648 -0.2320503 0.063574895 -0.3192609 -4.867439e-05 -0.011145751
-0.078287296 0.26865602 -0.14472371 -0.12119562 -0.07824166 0.10020135 -0.04683091 0.113926165
-0.26751304 0.31744552 0.07635958 0.10392076 0.14068554 -0.061282557 0.17411377 0.16463286
0.075057276 -0.11572208 0.09732991 -0.13435946 0.21545668 0.02383632 0.12873049 -0.17342794
-0.22957273 0.055649925 0.24094458 0.27691177 0.2034176 0.09694172 0.2786943 -0.26437736
-0.09765202 0.18505248 0.14436798 0.07399198 -0.18970007 -0.162092 -0.1183643 0.1391797
-0.24263084 -0.13978429 0.0135888625 -0.10309154 0.07512286 0.1154795 0.3291057 -0.028302161
-0.043038204 -0.11750151 -0.09588345 0.07203127 -0.28919783 -0.24903758 0.15169688 -0.25208032
-0.020353662 -0.116871476 0.10180656 -0.08577214 -0.1179735 0.04934281 0.11256641 0.1132831
-0.16578092 0.06444189 -0.08632869 -0.018652998 0.16328885 0.24947274 0.16417836 0.29748687
0.24169253 0.025677605 0.015704418 -0.07475015 -0.07048368 0.22578666 0.27468583 0.18595381
0.08642055 0.1474693 0.13527782 -0.1989426 -0.103660956 -0.08549057 -0.080026135 -0.13442014
-0.11041926 -0.0041150367 0.15241764 -0.29615036 -0.103755236 -0.00030296107 -0.1501232 0.11013928
-0.016021261 0.054893743
00000000: 2a6e 173e dc35 75be 8f12 233e 16f0 5b3e
00000010: 445a 453e 8bb1 5abd 42e8 213d dc72 07be
00000020: 4fd9 38be 7760 173e 7c21 be3d ff27 1a3e
00000030: e218 663d 483e e1bd d4fc c83c 9268 b7bd
00000040: 373e 493d 40f6 33bd a359 95bd 4dac 423e
00000050: 3eba 2f3e 1bac 543e 10bd a4bd bbe5 503e
00000060: 6be6 20be 582a 68be 1647 64be 6bfe 2cbe
00000070: b85f 6cbe 2936 513e c8f1 023e 9926 35be
00000080: 2e09 1fbe d4c6 123b a9aa 30be ef28 c1bd
00000090: 818f 15be dd8a 02be 2347 443d a562 1ebe
000000a0: 251e 8c3d 245c 65bd 6845 783c 3117 13be
000000b0: 588b a43d 2ebb 70be 6aa6 03be 7cd2 8cbd
000000c0: 6f38 103e fd64 723e 4146 ee3c 9da9 93be
000000d0: 0b36 52bd b52e ed3d a6c3 83bd fd6c 2abd
000000e0: d8e5 ea3d db3e 67be c418 f83d 9feb 64be
000000f0: 71d1 9bbe 46eb aa3d 5bc6 99bd 777c 4abe
00000100: 7a5c 41bd c173 37be 2112 4f3e c9ad 723b
00000110: 5807 a73e dda6 3e3d b704 2d3e d059 62be
00000120: 0093 0f3e fa84 b93d 2981 953e 36b6 dc3c
00000130: c643 513d cf3d 7bbe 1051 a03e b424 87be
00000140: 595a df3d e316 b7bb 9e5b 63be 91e0 ad3d
00000150: 8a7e 94be fb1e 413d 4d9d 993d 6674 c53d
00000160: e9c3 49be 061b b5bc 37b0 8bbd e2ea 2abe
00000170: 94be 2bbe 94df bfbd cdb8 653c 57ff e5bd
00000180: 52ed 3abe 515a c43d 65e8 943e 4c97 b7bd
00000190: 933c 3a3e 4658 ce3d 52df 1abd c0f6 27be
000001a0: a03b 6dbe 9f9d ca3d da91 0a3e bffa 213e
000001b0: d400 27be 8c07 72bd ccbb a33d 2d1d 50be
000001c0: baf7 2a3d ca97 47bc 3308 eabd fc27 31be
000001d0: c621 a3bd bdd5 b3bd c91f 693e 9497 7ebd
000001e0: 8f32 34be dfda 6e3d e1eb b3bd e2ae f93d
000001f0: 09a8 823e 4922 f33d f174 383d 97e3 343e
00000200: 4ce3 55bb bfd4 acbd eee0 2f3e 989e 6dbe
00000210: 8e33 823d 2a76 a3be ba27 4cb8 ab9c 36bc
00000220: 1755 a0bd 488d 893e 7432 14be 6935 f8bd
00000230: 2a3d a0bd 5e36 cd3d c5d1 3fbd 1f52 e93d
00000240: 78f7 88be 3888 a23e 6962 9c3d 68d4 d43d
00000250: df0f 103e 6b03 7bbd e14a 323e 8495 283e
00000260: a1b7 993d b3ff ecbd e754 c73d 8795 09be
00000270: ada0 5c3e 6344 c33c edd1 033e 1897 31be
00000280: 1d15 6bbe 2df1 633d 2dba 763e 61c7 8d3e
00000290: b44c 503e 6189 c63d 05b1 8e3e 785c 87be
000002a0: c8fd c7bd 667e 3d3e 33d5 133e 1b89 973d
000002b0: bc40 42be 72fb 25be fb68 f2bd 2085 0e3e
000002c0: 3874 78be 9d23 0fbe d2a3 5e3c a821 d3bd
000002d0: 04da 993d 8480 ec3d 8b80 a83e efd9 e7bc
000002e0: d448 30bd a2a4 f0bd 8b5e c4bd 2185 933d
000002f0: bd11 94be b503 7fbe 6d56 1b3e ac10 81be
00000300: b9bc a6bc 505a efbd f57f d03d 4ea9 afbd
00000310: 179c f1bd b01b 4a3d 3889 e63d f800 e83d
00000320: 79c2 29be 1cfa 833d 19cd b0bd 2cce 98bc
00000330: 3135 273e c875 7f3e 5f1e 283e 3350 983e
00000340: 3f7e 773e d759 d23c 8da6 803c 9b16 99bd
00000350: bf59 90bd 9e34 673e 9fa3 8c3e ad6a 3e3e
00000360: 42fd b03d 3102 173e 4586 0a3e 9cb7 4bbe
00000370: 324c d4bd ae15 afbd bee4 a3bd 6fa5 09be
00000380: 7e23 e2bd 6ed7 86bb 5f13 1c3e 05a1 97be
00000390: a07d d4bd bfd6 9eb9 e5b9 19be b490 e13d
000003a0: 053f 83bc 43d8 603d
